…
a":{}}]},{"cell_type":"code","source":["model.to(\"cuda\")"],"metadata":{"colab":{"base_uri":"https://localhost:8080/"},"collapsed":true,"id":"j9hxtmWQFSGX","executionInfo":{"status":"ok","timestamp":1718533721342,"user_tz":-120,"elapsed":64,"user":{"displayName":"Ny Haingo Miantsatiana ANDRY","userId":"02576837319316170548"}},"outputId":"f465c194-e94c-4ab2-cca7-80cd762f115b"},"execution_count":null,"outputs":[{"output_type":"execute_result","data":{"text/plain":["DistilBertForTokenClassification(\n","  (distilbert): DistilBertModel(\n","    (embeddings): Embeddings(\n","      (word_embeddings): Embedding(28996, 768, padding_idx=0)\n","      (position_embeddings): Embedding(512, 768)\n","      (LayerNorm): LayerNorm((768,), eps=1e-12, elementwise_affine=True)\n","      (dropout): Dropout(p=0.1, inplace=False)\n","    )\n","    (transformer): Transformer(\n","      (layer): ModuleList(\n","        (0-5): 6 x TransformerBlock(\n","          (attention): MultiHeadSelfAttention(\n","            (dropout): Dropout(p=0.1, inplace=False)\n","            (q_lin): Linear(in_features=768, out_features=768, bias=True)\n","            (k_lin): Linear(in_features=768, out_features=768, bias=True)\n","            (v_lin): Linear(in_features=768, out_features=768, bias=True)\n","            (out_lin): Linear(in_features=768, out_features=768, bias=True)\n","          )\n","          (sa_layer_norm): LayerNorm((768,), eps=1e-12, elementwise_affine=True)\n","          (ffn): FFN(\n","            (dropout): Dropout(p=0.1, inplace=False)\n","            (lin1): Linear(in_features=768, out_features=3072, bias=True)\n","            (lin2): Linear(in_features=3072, out_features=768, bias=True)\n","            (activation): GELUActivation()\n","          )\n","          (output_layer_norm): LayerNorm((768,), eps=1e-12, elementwise_affine=True)\n","        )\n","      )\n","    )\n","  )\n","  (dropout): Dropout(p=0.1, inplace=False)\n","  (classifier): Linear(in_features=768, out_features=7, bias=True)\n",")"]},"metadata":{},"execution_count":795}]},{"cell_type":"markdown","source":["# Confusion matrix"],"metadata":{"id":"lLcMDbIEffrl"}},{"cell_type":"code","source":["predictions, labels, _ = trainer.predict(tokenized_datasets[\"test\"])\n","predictions = np.argmax(predictions, axis=2)\n","\n","# Remove ignored index (special tokens)\n","true_predictio
…
